…
Average actions of items: 3.749589640707642
The number of inters: 20559
The sparsity of the dataset: 99.98071694707788%
Wed 19 Apr 2023 16:59:32 INFO 
====Testing====
baby
The number of users: 19445
Average actions of users: 1.1150424273592183
The number of items: 5549
Average actions of items: 3.907370697422959
The number of inters: 21682
The sparsity of the dataset: 99.97990552482683%
Wed 19 Apr 2023 16:59:35 INFO 

=================================


Wed 19 Apr 2023 16:59:35 INFO =========1/5: Parameters:['aggr_mode', 'reg_weight', 'learning_rate', 'seed']=('add', 0.1, 1e-06, 999)=======
Wed 19 Apr 2023 16:59:36 INFO RTG(
  (MLP_v): Linear(in_features=64, out_features=64, bias=False)
  (MLP_t): Linear(in_features=64, out_features=64, bias=False)
  (image_embedding): Embedding(7050, 4096)
  (image_trs): Linear(in_features=4096, out_features=64, bias=True)
  (text_embedding): Embedding(7050, 384)
  (text_trs): Linear(in_features=384, out_features=64, bias=True)
  (MLP_user): Linear(in_features=128, out_features=64, bias=True)
  (v_gcn): GCN(
    (MLP): Linear(in_features=4096, out_features=256, bias=True)
    (MLP_1): Linear(in_features=256, out_features=64, bias=True)
    (conv_embed_1): Base_gcn(64, 64)
  )
  (t_gcn): GCN(
    (MLP): Linear(in_features=384, out_features=256, bias=True)
    (MLP_1): Linear(in_features=256, out_features=64, bias=True)
    (conv_embed_1): Base_gcn(64, 64)
  )
  (user_graph): User_Graph_sample()
)
Trainable parameters: 37305214
Wed 19 Apr 2023 17:00:18 INFO epoch 0 training [time: 40.90s, train loss: 40.2007]
Wed 19 Apr 2023 17:00:25 INFO epoch 0 evaluating [time: 3.60s, valid_score: 0.047700]
Wed 19 Apr 2023 17:00:25 INFO valid result: 
recall@5: 0.0196    recall@10: 0.0294    recall@20: 0.0477    recall@50: 0.0910    ndcg@5: 0.0126    ndcg@10: 0.0158    ndcg@20: 0.0204    ndcg@50: 0.0290    precision@5: 0.0041    precision@10: 0.0031    precision@20: 0.0025    precision@50: 0.0019    map@5: 0.0101    map@10: 0.0114    map@20: 0.0126    map@50: 0.0140    
…
